…
          "base_uri": "https://localhost:8080/"
        },
        "id": "dCWdS0gDnwmx",
        "outputId": "6b0b850f-2af9-4339-a2f7-8eb2b2fb009c"
      },
      "execution_count": null,
      "outputs": [
        {
          "output_type": "stream",
          "name": "stdout",
          "text": [
            "Model: \"sequential_1\"\n",
            "_________________________________________________________________\n",
            " Layer (type)                Output Shape              Param #   \n",
            "=================================================================\n",
            " conv2d_3 (Conv2D)           (None, 150, 150, 16)      448       \n",
            "                                                                 \n",
            " max_pooling2d_3 (MaxPooling  (None, 75, 75, 16)       0         \n",
            " 2D)                                                             \n",
            "                                                                 \n",
            " conv2d_4 (Conv2D)           (None, 75, 75, 32)        4640      \n",
            "                                                                 \n",
            " max_pooling2d_4 (MaxPooling  (None, 37, 37, 32)       0         \n",
            " 2D)                                                             \n",
            "                                                                 \n",
            " conv2d_5 (Conv2D)           (None, 37, 37, 64)        18496     \n",
            "                                                                 \n",
            " max_pooling2d_5 (MaxPooling  (None, 18, 18, 64)       0         \n",
            " 2D)                                                             \n",
            "                                                                 \n",
            " dropout_1 (Dropout)         (None, 18, 18, 64)        0         \n",
            "                                                                 \n",
            " flatten_1 (Flatten)         (None, 20736)             0         \n",
            "                                                                 \n",
            " dense_2 (Dense)             (None, 128)               2654336   \n",
            "                                                                 \n",
            " dense_3 (Dense)             (None, 2)                 258       \n",
            "                                                                 \n",
            "=================================================================\n",
            "Total params: 2,678,178\n",
            "Trainable params: 2,678,178\n",
            "Non-trainable params: 0\n",
            "_________________________________________________________________\n"
          ]
        }
…
